…
ropy as our loss function, note the this is the reason why we have chose to use softmax as the activation function of our output layer.\n\n\nmodel_2conv.compile(optimizer=tf.keras.optimizers.Adam(learning_rate=0.03),\n              loss=tf.keras.losses.CategoricalCrossentropy(),\n              metrics=['accuracy'])\n\n\nmodel_2conv.summary()\n\nModel: \"sequential\"\n_________________________________________________________________\n Layer (type)                Output Shape              Param #   \n=================================================================\n conv2d (Conv2D)             (32, 107, 201, 30)        1350030   \n                                                                 \n max_pooling2d (MaxPooling2D  (32, 53, 67, 30)         0         \n )                                                               \n                                                                 \n batch_normalization (BatchN  (32, 53, 67, 30)         120       \n ormalization)                                                   \n                                                                 \n conv2d_1 (Conv2D)           (32, 39, 38, 15)          202515    \n                                                                 \n max_pooling2d_1 (MaxPooling  (32, 13, 13, 15)         0         \n 2D)                                                             \n                                                                 \n batch_normalization_1 (Batc  (32, 13, 13, 15)         60        \n hNormalization)                                                 \n                                                                 \n flatten (Flatten)           (32, 2535)                0         \n                                                                 \n dropout (Dropout)           (32, 2535)                0         \n                                                                 \n dense (Dense)               (32, 200)                 507200    \n                                                                 \n dropout_1 (Dropout)         (32, 200)                 0         \n                                                                 \n dense_1 (Dense)             (32, 50)                  10050     \n                                                                 \n dropout_2 (Dropout)         (32, 50)                  0         \n                                                                 \n dense_2 (Dense)             (32, 16)                  816       \n                                                                 \n=================================================================\nTotal params: 2,070,791\nTrainable params: 2,070,701\nNon-trainable params: 90\n_________________________________________________________________\n\n\n\n#  model_2conv = tf.keras.models.load_model('../models/2conv/six/')\n\n\n\nModel training\nNow that we h
…
